Classification/logs/2022-10-12_15-35-28_mlp/checkpoints/last.ckpt (torch, 173271 bytes, 6 tensors)

model.model.0.weight f4 [200, 9]
00000000: 3ff8 43bd 6a13 10be 4098 53bd db2a c3bd
00000010: a333 9c3e d81f 85be dc04 0dbe fa8e 8f3e
00000020: a88a 6f3d 4ebb 7cbe cef6 eb3d 97a0 87be
00000030: d16d 443e a045 133d 8102 bebc a7a8 37be
00000040: 8546 3ebe 2db1 e1bd 1c67 fabc 6a5d 29be
00000050: 39c2 b23d a5dc 60be 1147 00be 4c6f 4ebe
00000060: 4384 fe3c 1168 a3be c234 8a3e 872f 6b3e
00000070: e6c8 933e 6bd9 0bbe 8510 77bc 4808 68bc
00000080: cdf4 d4bd 0b88 ec3d cda5 d93d 5af9 54be
00000090: a2d0 f7bc 1dde 86be e830 103e 240b 393e
000000a0: 5daf 0c3d 6829 8fbe 76a7 06be 2154 483e
000000b0: e4ad 14be 15ab 3b3d b2f3 78be a1ce 53bd
000000c0: f389 50be 03a5 8fbe 2e45 3cbe 28d4 00be
000000d0: d059 923e 5cbc 913e b163 093e 2b42 3e3e
000000e0: 0351 e13d f6e9 18be f3a1 173e 3399 87bc
000000f0: 9fe7 67be 8875 56bd be4d 383e 75de 32bd
00000100: 149f 703c ac1a ca3d d5ff ed3d 974e 82be
00000110: 83c5 40be f4dc 2a3e 5d0b 6e3e dde0 d1bd
00000120: 4af4 443e 3497 b03d 55aa 823e a3cc 0f3e
00000130: d4d6 87bc b09d 833e 13fd 14be 1c71 18bd
00000140: f51e d03d 0c5b 3f3e 3a55 9bbe 3bc3 48bc
00000150: 7b54 873e a56d 9c3e c154 3a3e 4068 263e
00000160: e54d b33d 123d 67be 803b 743d 833b 08be
00000170: 299a 083d 10a0 85be 47cf 363d ca1c 54bd
00000180: 393e dd3d 1dbf 7fbe b466 e73d a6f6 df3d
00000190: 7fba 533e ff9e 803e 99ae 8bbc 6f61 efbd
000001a0: a3a2 88be 17a4 47bd 9bf0 863e 951c 9e3e
000001b0: 23bb cdbd a6e4 653d 18ba 32be 408d 43bd
000001c0: 8bac 34be 7c93 e1bd 0ca3 a4be a0d7 443d
000001d0: e300 323e 2630 9a3d cba4 4cbe edbc 1b3e
000001e0: aca4 a83e af3c a73e 87e3 9cbe 83ac 89bd
000001f0: 0712 893d 6cac 843d 75bc 85be 5407 313e
00000200: ee80 033e 5aa0 8c3d e566 913d 0f75 643e
00000210: 4da8 febd f40e 1bbe ac2e 20be 4f70 a33e
00000220: 2b90 9e3e e608 f93d d1da 16be dad8 163e
00000230: ac6c 773e 3d2c 4cbe dda9 83be 111b 3fbe
00000240: e496 f2bd 4bed 9ebd ba00 9abe f08e 48be
00000250: fed0 993e 438c 933c 940e 0bbd 54f3 38be
00000260: 8ce1 b1bd 6d00 8d3c 7d39 ba3d b14a 323e
00000270: d1f8 1cbd 42a6 75be 27e0 4d3e e841 55be
00000280: 62ce 1ebd af1a 4cbe 7b98 bcbd e321 3a3e
00000290: a255 223e d328 a3bd c386 1fbd 13b5 3dbe
000002a0: 64ad 503e 8d94 e33d 3a6d 7c3e 7ec3 c0bb
000002b0: e934 8a3e c639 313e 4ff8 71bd 311d 75be
000002c0: be28 403d 7bea 2e3e 58b1 733d 44dd 793d
000002d0: 60e8 a63e 5466 3abe c5ac 843d aedb 923e
000002e0: 8cae 95be c4de 35be e38e 33be 9a90 77bd
000002f0: e7e2 113c 30b4 883e 57ee c63d 76c6 82be
00000300: df3d 953e f753 be3d 931f 4ebe 230d 473e
00000310: b768 653e 35c7 d13c aadd 703e e15e 493e
00000320: 4759 1a3e 2a13 cc3d 42af beba 9765 0dbe
00000330: a7ec 12bc 3026 783e 9032 093e 687b c7bd
00000340: 5ac3 11be af16 c33c f08d a93e 7f19 54bd
00000350: 2f4b c6bc 6c0e 1bbe 84a3 303e 13f2 a83d
00000360: b62e 44be c4cd 8ebe d135 a93e 9c95 813e
00000370: f635 a2be b657 8dbe 7299 e43d 71fb 4a3e
00000380: aed7 383e 198d ffbd 83bb 003e b111 2a3d
00000390: daf0 e2bb 5727 e13b 271a 843e dbfa f9bd
000003a0: cc0b b7bd ce67 5dbe 0da5 71be b422 a03e
000003b0: 532e 953e ddf4 91be 8a45 4fbe 1e21 003e
000003c0: f108 fb3d 48e6 373e b5f7 303e f2ca 543e
000003d0: e743 433d 61d6 333d 0872 16bc b0df 94be
000003e0: b005 21be 5ef4 6ebe e230 7f3e 0e54 803e
000003f0: a5ca f43c 1692 c83d 6a2c 143e a390 663e
-0.047844168 -0.14069906 -0.05165887 -0.095296584 0.30508146 -0.26000857 -0.13771385 0.2803877
0.058481842 -0.24680826 0.11521684 -0.26489708 0.19182517 0.03595507 -0.023194553 -0.1793543
-0.18581589 -0.11020122 -0.030566745 -0.16539541 0.08728451 -0.21959169 -0.1252711 -0.20159644
0.031068927 -0.31915334 0.26993376 0.22967349 0.2886421 -0.13657157 -0.015079622 -0.014162131
-0.103982545 0.11549386 0.10627327 -0.20798245 -0.030250851 -0.26341334 0.14081156 0.18070656
0.034346927 -0.27961278 -0.13149819 0.19563343 -0.14519459 0.045817453 -0.24311712 -0.05171073
-0.20365123 -0.2805558 -0.18385765 -0.12580931 0.28584146 0.2846402 0.13416936 0.18579929
0.1100178 -0.14932999 0.14807872 -0.016552543 -0.2264695 -0.05235818 0.17998406 -0.043669183
0.014686365 0.098683685 0.11621062 -0.25450584 -0.18825345 0.1668585 0.23246522 -0.102479674
0.19233814 0.0862259 0.25520578 0.14042906 -0.01658193 0.25706244 -0.14549665 -0.037217245
0.101621546 0.18687075 -0.3033846 -0.012253578 0.2643164 0.30552402 0.18196394 0.16250706
0.087550916 -0.2258189 0.059627056 -0.13303952 0.033350144 -0.2609868 0.04463127 -0.051785268
0.10802884 -0.24975248 0.11298886 0.10935716 0.20676611 0.25121304 -0.017051028 -0.11688506
-0.26686582 -0.048740473 0.26355442 0.3088118 -0.10045459 0.05612626 -0.17453802 -0.04774213
-0.17643945 -0.110144585 -0.32155645 0.0480572 0.17383151 0.07528715 -0.19984739 0.15208788
0.32938135 0.32663485 -0.3064234 -0.06722357 0.066928916 0.06478199 -0.26120344 0.17287952
0.12842152 0.06866522 0.07099704 0.2231028 -0.124344446 -0.15142423 -0.15642804 0.31921622
0.30969366 0.121599 -0.1473191 0.1473116 0.24162549 -0.1993875 -0.25715533 -0.18662669
-0.11845186 -0.07760104 -0.3007868 -0.19585776 0.3004226 0.018011218 -0.03394945 -0.18061572
-0.08685598 0.017212117 0.09092996 0.17411305 -0.038323227 -0.23989204 0.20105039 -0.20825922
-0.03877104 -0.19932054 -0.09208771 0.1817699 0.15852979 -0.07966771 -0.03894688 -0.18526106
0.20378643 0.11112318 0.24651042 -0.0058826795 0.26993492 0.17307195 -0.059074696 -0.23936917
0.046913855 0.17081635 0.0594953 0.06100203 0.32599163 -0.18203098 0.06478266 0.28683227
-0.2923473 -0.1776076 -0.17534976 -0.060440637 0.008904195 0.26699972 0.097134285 -0.2554204
0.29148766 0.09293359 -0.20129232 0.19438605 0.22403227 0.025607685 0.23522058 0.196651
0.15073119 0.09964593 -0.001454808 -0.13808285 -0.008967555 0.24233317 0.13398194 -0.09740335
-0.14234677 0.023814527 0.33116102 -0.051782127 -0.024205772 -0.1514222 0.17249876 0.08249297
-0.19158444 -0.27891362 0.3304887 0.25309455 -0.31681794 -0.2760598 0.1116208 0.1982248
0.18051025 -0.12478084 0.1257153 0.041520778 -0.0069256844 0.0068711448 0.25801203 -0.1220605
-0.08937797 -0.2162163 -0.23598118 0.31276476 0.29136905 -0.28507128 -0.20241371 0.12512633
0.12257565 0.17958939 0.17281993 0.20780542 0.04767218 0.04390562 -0.009182461 -0.2907691
-0.15724826 -0.23335406 0.24920991 0.2506413 0.029881785 0.09793489 0.14470068 0.22516112

model.model.0.bias f4 [200]
00000000: c9ae 903e e49c 8ebe 2616 823d 50df 27be
00000010: 1a1f 97be 8e03 8cbe 2f5f a73e 45e1 46be
00000020: 82f0 a73e 44af 063b 9046 01bd 669e 83be
00000030: 33d6 7dbe 09c9 873d a43c a1be d60e 5a3e
00000040: 3526 7c3d 8bc1 9e3d 7280 513e 6b97 d03d
00000050: d76d fabd 25e9 0ebe 800c 5abd 53da 1dbe
00000060: 5bf8 973c 5807 a03d 5f92 943e 28c5 79be
00000070: f8f5 a5be 7fe9 87be fe67 cdbd b3a5 de3d
00000080: b902 13be 7979 4f3d 8a0d c43a 06df 293e
00000090: fc66 1ebd 68a7 9cbe a70e 10be 60cd 47be
000000a0: c320 683e 328c c43d c88c a4bd c483 aa3e
000000b0: 35d5 353e 3dc4 62bc 645e 103e 2abf e23d
000000c0: e972 0dbd 4a31 9abe 5165 7c3e 2220 8a3e
000000d0: c362 a4bd e88b 613e 2102 a9be 5361 753d
000000e0: 0ef6 663e f39c 05bc 785b 5abe 466b 3abe
000000f0: 7e2b dcbc bfb3 3a3e ca7e 78be 5b25 6a3d
00000100: e604 0c3e aac5 973e 0a1d 52be 76b5 24be
00000110: 0ca5 393e 24c8 a83e fbe0 4bbe 65da aebb
00000120: f32c 263e 5abd 5b3e 5d34 37be 02c4 963e
00000130: 8635 c03d cae0 a83e 86a6 823e 8c75 9dbe
00000140: 6f16 0ebb d810 c8bc 3d1e 9e3c 15c9 613c
00000150: 66b7 a7bd 6b13 08be 8184 453e ff40 683e
00000160: 9b33 063d dfb8 ed3d a8c5 873e ed86 be3d
00000170: 41aa 7f3d 1e3c a7be 2dfb 233e 02db 0abe
00000180: 3b0b 94be bf27 a739 e19d 003e fb42 953e
00000190: cae7 853e 7753 47bd 5c2a 713e 3752 433d
000001a0: 084d 253c 949a 003d 1f6a 86bd d71c 60be
000001b0: 392d 5dbd 2b7f 733e 31c7 ddbc 5078 6e3e
000001c0: e392 82be 3fba 6ebe c973 853e 86fb a43e
000001d0: ba86 443e d823 aa3e ae50 8c3d 75a5 653d
000001e0: 136d 99be 0f70 c33d eee5 673e 9e4a b6ba
000001f0: 76dd 86be 3ed7 2dbd f9c1 8a3c 92be 963e
00000200: 36e9 86be 28c5 98be e085 a33e 4994 673e
00000210: 2c4b 76be 0e55 65be 3f67 57be f891 37be
00000220: 12cc 993b 1e67 a93e 7a1c 30bd f650 a23e
00000230: 1182 0fbe 3140 9f3e 137c 21be 4c96 a93e
00000240: fa8e edbd f897 75be 0802 f0bd 1442 6fbe
00000250: e69d f03d 0aca 213d 33c8 293e 29bc e9bd
00000260: 6aa3 88be b09a 96be da7c 69be 7667 81be
00000270: bae9 8abe 9aa2 933e e80c a3be ec83 d2bd
00000280: 0254 853e 1191 4f3e adf5 b7bd 8015 733d
00000290: 4f62 9f3e c500 ee3d 9020 133e c54c a53e
000002a0: 563d 07be 852e 8f3d 43bd 2bbe 3560 30be
000002b0: 200d fa3d 6baf 16bd 5dc0 063c 3b95 a7bd
000002c0: 20ed 843e 33db e4bd a9fa 9dbe f56f 83be
000002d0: 4ee7 0abe 3d71 58be 64bd e23d 7b3b a9bd
000002e0: e2eb 273e bafb 65bd 3aff 8fbe ebfa 69be
000002f0: 3440 8e3d 71f5 793d 7a99 9b3e 8445 94be
00000300: 928e 50bd e54d e93d 63c8 b6bd 0fea 233e
00000310: 21be 8dbd 6bb9 493d 2f50 613d 48bc 65be
0.2825835 -0.27854073 0.06351881 -0.1639378 -0.29515916 -0.27346462 0.32689807 -0.19421871
0.3280068 0.0020551244 -0.031561434 -0.25706786 -0.24788742 0.06630141 -0.31491578 0.21294722
0.061559875 0.07751759 0.20459154 0.10185131 -0.122279815 -0.13956125 -0.053234577 -0.15415315
0.018551042 0.07813901 0.29017922 -0.24391615 -0.32414222 -0.2654533 -0.100296006 0.10871448
-0.14356507 0.050652955 0.0014957648 0.16588983 -0.038672432 -0.3059647 -0.1406809 -0.19511938
0.22668748 0.09597053 -0.080346644 0.33303654 0.17757113 -0.013840732 0.14098507 0.11071618
-0.034533415 -0.3011573 0.24648024 0.2697764 -0.0802665 0.22026026 -0.33009437 0.05990727
0.225548 -0.008155095 -0.21323955 -0.18204984 -0.026876207 0.1823263 -0.24267116 0.05716453
0.13673744 0.29642993 -0.2051889 -0.16084847 0.18129367 0.32965195 -0.19910042 -0.0053360933
0.16228084 0.2145895 -0.17891069 0.29446417 0.09385209 0.32984 0.25517672 -0.30753744
-0.0021680852 -0.024422094 0.019301528 0.013780852 -0.08189277 -0.13288657 0.19288827 0.22681044
0.03276406 0.11607527 0.26517987 0.09303079 0.062418226 -0.32663053 0.16013785 -0.13560107
-0.28914818 0.00031882335 0.12560226 0.29152665 0.26153404 -0.048663583 0.23551315 0.047685828
0.010089166 0.031397417 -0.0656321 -0.21886002 -0.053998206 0.2377898 -0.02707252 0.23288083
-0.2550269 -0.23313235 0.260649 0.32223147 0.19192019 0.33230472 0.06851326 0.056065995
-0.2996603 0.09542858 0.22646305 -0.0013907736 -0.26340836 -0.0424416 0.016938196 0.2944227
-0.263498 -0.29837918 0.31938076 0.2261516 -0.24052113 -0.22395727 -0.21035479 -0.17926776
0.0046935165 0.33086485 -0.042995907 0.31702393 -0.1401446 0.31103662 -0.15769987 0.3312248
-0.11599536 -0.23983753 -0.117191374 -0.2336505 0.11748867 0.03949932 0.16580276 -0.11412842
-0.26687175 -0.29414892 -0.22801533 -0.25274247 -0.27131444 0.28834993 -0.31845784 -0.10279068
0.26040655 0.20270182 -0.08982406 0.059346676 0.3112969 0.116212405 0.1436789 0.32285133
-0.13206992 0.06991295 -0.16771416 -0.172242 0.12209535 -0.036788385 0.008224574 -0.0818276
0.25962162 -0.111746214 -0.308553 -0.25671354 -0.13564798 -0.21136947 0.1107128 -0.08263298
0.16398576 -0.05614827 -0.2812441 -0.22849624 0.069458395 0.061025087 0.3039053 -0.28959286
-0.050917216 0.1139181 -0.089249395 0.16007255 -0.0692103 0.049249094 0.05500811 -0.22435105

model.model.2.weight f4 [200, 200]
00000000: 4b37 593b 011d 80bd 72c5 9aba 9751 8a3d
00000010: 5a8e ba3c 544b 8b3d 14c8 73bc db62 3cbc
00000020: aa0d 8f3d 8bdd 493d 9698 d43c 24a9 eabc
00000030: 8578 7b3d 468c 143d 3e1f edbc c5ec 2bbc
00000040: 4f13 5dbc 1a7c 733d 8632 6ebd 79fd d0bc
00000050: 8166 8bbd e4ea 473c 5c99 e13c acf7 13bd
00000060: b289 f43b 49c4 7ebd cda6 62bd c3e0 5e3d
00000070: b828 23bd 08b1 393d 6b85 843d 278f aabc
00000080: c1b0 843b 457f 75bd 4a63 83bb 03ae 17bd
00000090: 8760 e13c afcc 01bd c172 9cbb 487d 62bc
000000a0: 9d86 873d 5221 7bbd cef7 a6bc 10c6 733d
000000b0: bda1 173d 92c7 883d a68f c93c b9f8 753d
000000c0: a1c4 0d3d 0bf7 b33a e64d 8e3d 9cc2 753d
000000d0: 7781 dbbc d5d5 b7bc ecc8 f7bc d036 cdbc
000000e0: 8a95 793d fd46 833d 5dcf 2e3b 6bbe 8f3d
000000f0: 9979 c6bc 58cf 6e3d 7213 2cba cd3a 8b3d
00000100: b4c5 f3bc 27c9 a2bb dd02 15bd f68d 243d
00000110: cd66 78ba edab dbbb 76a6 4abc 0a5b a93b
00000120: 401a d5bc de08 923c 3dec 74bc 081f 24bc
00000130: 1128 6cbd 9d47 a8bc c9a9 6b3d 2676 043c
00000140: bcf1 d0bc 1621 073b a699 77bd 6a0d 7abc
00000150: 3111 de3c 6f17 4a3d 4076 133d a7c3 51bc
00000160: b3b0 fe3c 0715 673d 4686 da3c 1c9b f23c
00000170: b248 e7bc 5a0c 02bd 4cae 28bd d3a8 51bd
00000180: 86e3 81bd ee21 de3c 2a56 933c 6547 6ebd
00000190: 080c 1f3d ac81 00bb 6847 dbbb a41a ab3c
000001a0: 1679 02bd ffcf 823d 39c0 253d 159c 93bc
000001b0: 23bc 903c e5b7 1dbd 8217 86bd e763 02bd
000001c0: 2eac 123d 2040 8c3d ce1d c03c 43aa c6bb
000001d0: 35c5 b8bc 44e1 38bd dd82 d73c 32a7 90bd
000001e0: 35af 5e3c 6a99 4ebc 0891 e03c 2e2b 473b
000001f0: fabc 82bc ff5f 2c3d d07a fa3c f196 533c
00000200: 419b fe3c 3b18 903c ea32 75bd bb9b 50bd
00000210: 283b a8bb 78b7 5a3d 70ff e53c 01be 3cbc
00000220: 5482 d9bb c1bc ed3b 74f2 843c f60c 22bc
00000230: 74ea 523d 05f3 693c 9453 43bc ce51 71bd
00000240: 8535 1e3d 7ca3 d33b 238c 5bbd 2567 c73c
00000250: 5af3 41bc e91f 4d3c 97de 84bd b4a7 80bc
00000260: 3d1b 8d3d 8502 fd3c 5cf4 85bc 5cd3 88bd
00000270: a5c4 66bc c94f 333d e4c2 5b39 5760 413c
00000280: d9c2 15bc 2245 763d 4254 afbc c68a 1e3d
00000290: d9f6 e03c bf63 19bd 04c7 81bc d624 62bd
000002a0: d8bc 4f3d 9484 7a3d 8ca7 763d db0e 0e3d
000002b0: ca13 51bd 94c2 903c 3214 933b f50c 843d
000002c0: 26dd c33c a41e 8ebd 6d60 5dbd 4ee8 43bd
000002d0: 2461 b6bb e2e7 6abd 7b36 babb 4d8f 86bd
000002e0: a674 6c3c 7010 6f3d d29c 61bd 2d09 01bd
000002f0: c8ad 71bd 1db9 27bc 72ec 7ebd 81e1 81bd
00000300: b1a6 6a3d c91d 2cbd 0127 42bd 731a e93c
00000310: 7ade d0bc 435f d03c 459f 4f3d 4dc9 f6bc
00000320: 851e 533c 9813 5f3d 15be 1abc 4a76 883d
00000330: 6ef0 82bd 92e8 283d 82e1 46bc f16a 213d
00000340: 6483 233c fa26 b137 d14f e23c d3fa 913c
00000350: a160 1a3d 3a63 d03c 8964 2a3d 19c8 483d
00000360: 79f1 1d3d ff32 403d 9b9e 3c3d 23de 9d3c
00000370: fa8a 2abd 0d6c a4bb c62c 83bd 8f29 52bd
00000380: 0df9 753c a412 03bc 5851 873c 1af6 aa3b
00000390: 4b68 ccbb a76b 3cbd 5686 103c cd23 52bd
000003a0: 9b0d 2abd 8d87 4a3d bcf3 013d a596 ae3c
000003b0: 87dd 153d ca82 72bd 2c8c cf3c dc9e 413b
000003c0: a29f 873d 17a4 263d c5a5 253d 8aaa 73bd
000003d0: d0c6 b3bc 16ca 413c a74f c23c 0fff eabc
000003e0: a4d5 c33c ca52 f03a 9ce3 1c3d 1692 57bd
000003f0: cae1 53bd 2904 73bc 60e1 58bd 04b0 00bd
0.003314453 -0.06255532 -0.0011808111 0.06753843 0.022772957 0.06801477 -0.014879245 -0.011498178
0.06985028 0.049283545 0.025951665 -0.028645106 0.061394233 0.036266588 -0.028945561 -0.010493462
-0.013493373 0.059444524 -0.05815365 -0.02551149 -0.068066604 0.012201998 0.027538948 -0.03612487
0.0074627036 -0.06219891 -0.055334855 0.05441357 -0.039833754 0.045334846 0.0647076 -0.020820213
0.004049391 -0.059935827 -0.004009639 -0.037031185 0.027511848 -0.031689342 -0.004774422 -0.013823815
0.06617472 -0.061311074 -0.020381834 0.05951506 0.03701948 0.0667869 0.02460463 0.060051654
0.034611348 0.0013730241 0.06948452 0.060000047 -0.026795132 -0.02244083 -0.030247174 -0.02505055
0.060933627 0.06410024 0.002667389 0.07018741 -0.024227904 0.058303207 -0.0006564177 0.06798325
-0.029757358 -0.004967827 -0.036379684 0.040174447 -0.0009475768 -0.0067038448 -0.012368789 0.0051683234
-0.026013494 0.017826494 -0.014948902 -0.010017164 -0.057655398 -0.02054196 0.057534967 0.008084809
-0.025505893 0.0020619086 -0.060449265 -0.015261987 0.027107807 0.049338754 0.036001444 -0.012802995
0.031090116 0.056416538 0.026675355 0.029614978 -0.028232906 -0.03175006 -0.041181847 -0.051186394
-0.06342225 0.027115788 0.017985422 -0.058173556 0.038829833 -0.001960854 -0.006691862 0.020886727
-0.031853758 0.06387328 0.04046652 -0.018018762 0.017667836 -0.038505454 -0.065474525 -0.031833556
0.035808735 0.068481684 0.023451712 -0.0060627772 -0.022554973 -0.045136705 0.026307518 -0.0706314
0.013591577 -0.012609819 0.027412906 0.0030390727 -0.015959252 0.042083737 0.03057614 0.012914405
0.03107989 0.017589679 -0.05986301 -0.050929766 -0.005134005 0.053397626 0.028075904 -0.01151991
-0.006637851 0.0072551672 0.016228892 -0.009890785 0.051493123 0.014279132 -0.011921782 -0.058915906
0.03862526 0.006458698 -0.05360044 0.024341175 -0.011837805 0.012519815 -0.06487768 -0.015704967
0.06889961 0.03088499 -0.016351871 -0.066809386 -0.01408497 0.04377726 0.0002095807 0.011802754
-0.009140694 0.060124524 -0.021402482 0.038706563 0.027461456 -0.03744864 -0.015841968 -0.05521091
0.050717205 0.061161593 0.06021838 0.034682136 -0.051044263 0.017670907 0.0044884915 0.06447784
0.023909163 -0.06939438 -0.054047037 -0.047828965 -0.0055657793 -0.057350047 -0.005682764 -0.06570301
0.014432108 0.058365285 -0.055081196 -0.03150289 -0.05900362 -0.010237006 -0.06223721 -0.063418396
0.057287876 -0.042020593 -0.04740048 0.028454995 -0.02549671 0.02543605 0.050689 -0.030125285
0.012885694 0.054462045 -0.009444733 0.06663187 -0.063935146 0.04123742 -0.012138726 0.039408628
0.009980056 2.1118194e-05 0.02762595 0.017819798 0.03768981 0.02543794 0.041599784 0.049018953
0.038560364 0.046923634 0.046049695 0.019270962 -0.041636445 -0.0050177635 -0.06405024 -0.051309165
0.015012992 -0.00800005 0.01651828 0.005217326 -0.0062380186 -0.046001103 0.008821091 -0.051303674
-0.04151688 0.049445678 0.031726584 0.021312067 0.036588218 -0.05920676 0.025335394 0.002954415
0.066222444 0.040683832 0.040441293 -0.05948881 -0.021945387 0.011827966 0.023719622 -0.028686075
0.023905583 0.001833522 0.038303003 -0.052629553 -0.051729 -0.014832535 -0.05294931 -0.03141786

model.model.2.bias f4 [200]
00000000: 5584 4c3b eb1c 8cbd ad76 74bd f125 e63b
00000010: d865 f5bc b8ab cb3b a114 43bd 71fb 2dbd
00000020: e958 903c 28f9 ddbc 95b7 5c3d 1e6f 8bbd
00000030: 8afa 1fbd e63f 4e3d bb3e 19bd 1dd5 a63b
00000040: 166a 33bb 9332 7e3b 2830 0abd e919 88ba
00000050: 8d3a 85bd c7e8 873d e4d4 31bd f37e 3a3d
00000060: fbd7 243d 2738 3e3c 88d7 45bc 9e4f f6bc
00000070: f8eb 5c3d a2d0 f3bc 4f3c ddbc 02b0 093d
00000080: 4861 613d 7de9 2b3d 14b6 7bbd 0575 37ba
00000090: 535c 0e3c e0b8 6d3c f6e8 323d 61da 2b3d
000000a0: bd04 663c 790f 06bd b2f7 813c 9caa 943c
000000b0: 78af 0dbd ba05 83bc 0be2 213d 2738 e1bb
000000c0: 00bf 0a3d 41ee 81bd 03cd 48bd 4c6a 8ebd
000000d0: 4227 cc3c e3b8 153d 7cc0 31bd 0a37 303d
000000e0: 7076 02bd bebe e1bc ab1d e23b dc68 4abd
000000f0: 7998 81bd f45a 0a3c 7c13 ea3c 4e4e 1c3d
00000100: 49e2 4f3c e59f df3b 0f66 683d a583 15bd
00000110: 2164 3d3d 1de1 913c 1f59 463d 459c 083d
00000120: 360e e1bb 8163 823d f3ff 723d 72a2 503d
00000130: c5e4 5c3d be3b 8a3d 0298 563d b89e 783c
00000140: c63c 6abd 6513 acbb 479f f2bb 60ff 07bc
00000150: 93b7 e9bc 7f40 0bbc a0c6 213d c380 823d
00000160: 3ecb 25bd d078 433d e820 373d a19a 95bc
00000170: e825 703d 2250 8cbd 6707 6fbd 370b ce3a
00000180: 804e a2bb 92d1 60bd 6b11 99bc fa38 4a3d
00000190: 3e42 0dbd 1aea 3b3d 3f01 dbbc 5d77 9c3c
000001a0: 9d3b b03c dded af3c ac33 22bd 4552 90bd
000001b0: 2004 073d 4b00 80bd 5b51 403d e0e0 c3ba
000001c0: 87b3 643c 5b73 18bc e0d9 453d 363c 7dbd
000001d0: 5239 873d e104 343d 2230 513d 1b1d 7dbd
000001e0: 50ca 43bd d5ec 6c3d c932 b4bb 20c4 87bc
000001f0: 32d8 423c f5bd 15bc 444e 1f3d b137 01b9
00000200: 5528 4cbd f0a3 873d b85c 103c 010a cd3c
00000210: 32ab 4ebc 8fe2 7e3d 47cd 8c3d 5568 143d
00000220: 45ae 8f3d 7e09 5c3c cb60 fa3c 2447 68bd
00000230: 7fdc 7cbb e6cf 333d dc90 5e3c fe1a fa3c
00000240: 5077 54bb 67ad 0f3d 66a7 9e3c 0ae9 343d
00000250: bb3c 013d 6792 f8bc 81dd 87bd dcc0 e2bc
00000260: a544 3cbd 5fb8 ab3c 9142 ef3b 24d6 8b3d
00000270: 67ec c0bc d301 8abd fb3c 8c3d 5d9b 1c3d
00000280: 7b06 d0b9 8472 2fbb 7421 8b3d b832 053d
00000290: 3dbc f63a ad18 eaba 6677 46bd 3977 753d
000002a0: 7507 37bd 850a 3abd 4d79 44bd f7e3 013c
000002b0: 89a7 85bd 2ebe c4ba 1dc7 92bc 4dd6 9a3c
000002c0: c9b4 003d 8119 163c da29 21bd d635 2d3d
000002d0: c62d 89bd 4095 063c 7f86 81bd fe19 f23c
000002e0: 30b9 5b3d ea4e 7ebd 09eb 8b3c 366d 5f3d
000002f0: 24f8 33bd 2675 453c d5bd 873d 6899 bcbc
00000300: 787e 3abd 0ffc ddbc f82f bc3c e1f6 9ebc
00000310: 92a1 3dbb 9a16 8ebd d3a9 3abd 4120 483d
0.0031206806 -0.06841453 -0.05968349 0.007023566 -0.02995579 0.006215539 -0.047627095 -0.04247612
0.01762052 -0.027096346 0.053886015 -0.06808303 -0.039057292 0.050353907 -0.03741334 0.005091323
-0.0027376465 0.0038787469 -0.03373733 -0.0010383698 -0.06505308 0.06636196 -0.04341592 0.045531224
0.040245038 0.011610067 -0.012075312 -0.030067261 0.053935975 -0.02976257 -0.027006296 0.03361512
0.055024415 0.04197072 -0.06145294 -0.0006998333 0.008689004 0.01450941 0.0436792 0.04195631
0.014039216 -0.0327296 0.01586518 0.01814776 -0.03459117 -0.015993942 0.039522212 -0.006873149
0.033873558 -0.063442715 -0.04902364 -0.06953868 0.024921063 0.036553275 -0.043396458 0.04302124
-0.031851232 -0.027556773 0.0069005094 -0.049416408 -0.0632791 0.0084445365 0.028573744 0.038160615
0.012688228 0.006824481 0.056737956 -0.0365025 0.04623807 0.017807538 0.048424836 0.033352155
-0.006868149 0.06366635 0.059326123 0.05093617 0.05392911 0.06749676 0.05239106 0.01517456
-0.057186864 -0.0052513354 -0.0074042412 -0.008300632 -0.028529918 -0.008499264 0.039496064 0.063722156
-0.04047703 0.047722638 0.044709116 -0.01826221 0.0586299 -0.068512216 -0.05835667 0.0015719895
-0.0049532056 -0.05488736 -0.018685063 0.049370743 -0.034487 0.045877554 -0.026733993 0.019099886
0.0215128 0.021475727 -0.03960006 -0.07046942 0.03296292 -0.06250056 0.046952587 -0.0014944337
0.013958818 -0.009304847 0.048303485 -0.061825 0.0660273 0.043949965 0.051071294 -0.061795335
-0.047800362 0.057843048 -0.005499218 -0.016573012 0.011892365 -0.009139528 0.038893 -0.00012323145
-0.04984315 0.066230655 0.008811168 0.025029184 -0.012614058 0.06222778 0.06875091 0.03623231
0.07015661 0.0134299975 0.030563733 -0.05670847 -0.0038583574 0.04389944 0.013584342 0.030530449
-0.0032419749 0.03507748 0.019366931 0.044167556 0.031552058 -0.030343248 -0.066340454 -0.027679853
-0.045963902 0.020961938 0.0073016365 0.068279535 -0.023550225 -0.06738629 0.068475686 0.038234103
-0.0003967768 -0.0026771137 0.0679349 0.032519072 0.001882441 -0.0017860137 -0.04845371 0.059928153
-0.044684846 -0.04542019 -0.047967244 0.007927886 -0.065260954 -0.0015010291 -0.01791721 0.018901015
0.03142241 0.009161354 -0.039346553 0.04228767 -0.06698184 0.008214295 -0.06324481 0.02955341
0.053643405 -0.062086977 0.017079847 0.05454751 -0.043937817 0.012051856 0.066280045 -0.023022369
-0.045530766 -0.02709773 0.022972092 -0.01940483 -0.0028935415 -0.06937905 -0.045572113 0.048858885

model.model.4.weight f4 [2, 200]
00000000: 5d91 a4bc 46e6 edbc 9da7 b53c 93a6 16bd
00000010: 2f65 79bc deca 423d 8e10 003d c75a 3ebd
00000020: ea45 8c3c 95c2 2c3d 6a57 94bc 8349 fc3c
00000030: a3b8 083a 1979 9eb8 e125 13bd b06c 393d
00000040: dd40 853c 0881 533d 5185 ef3c 2dc2 36bd
00000050: 9d60 c43b 687c a6bc c108 9ebc c612 73bc
00000060: 9765 74bd c775 65bd 4f4e 283d a45d 253d
00000070: 530e 8639 de02 843d 8f49 733d c371 28bd
00000080: 8446 9f3c caf4 47bd bfa3 533d 439c 05bd
00000090: fbd2 5bbd 387c 3a3d a6a2 6e3d 2ce8 27bc
000000a0: 113b 0b3d ea37 bd3c b3be 033d 5f6a b63b
000000b0: e6f7 bc3c 39d8 54bd 7f95 543d de90 2dbd
000000c0: ab17 943c 23c7 6d3d 16db 86bd 208b ecbc
000000d0: d3a5 f1bc f11e 21bd c361 913d 547e c63c
000000e0: 8088 dfbc 3512 783c f05d 553d bd9b 19bd
000000f0: a69e 033b 59bb 61bd fed6 993c 27b5 ec3c
00000100: 65ac cbbc 154a f7bc 4cd6 ad39 101d 79bd
00000110: a253 45bd 55eb 0bbc 589d b8bc e99e f33c
00000120: b76f 59bb 181d 96bc 0357 29bd b5f3 893d
00000130: 9caa bfbc 8ecb 3fbd 5728 9abc 562b 84bc
00000140: 435a 3fbd bde8 50bd 5fb0 603d cbb4 0b3d
00000150: 7e32 ee3c c14e 07bd f411 a53c ed70 1e3d
00000160: 51c7 30bd dafb a03c 6680 433c 9e92 79bd
00000170: a51e df3b aee9 653d 4c0d 1d3c 4242 473d
00000180: e2dd 713d a3d0 a6bb 8101 85bc 866a 6a3d
00000190: 5307 4cbc 6c56 88bd 771e f93c 2e83 64bd
000001a0: 9afe 2f3c 9c0c f5bc 1eef 973c 6e65 e1bc
000001b0: ffa5 11bc a802 043d 8647 423d 82fd 3ebd
000001c0: b139 7d3d b45e 443d f67c 0b3d b5a2 8bbc
000001d0: 49f9 393d 5b29 823b 624e 6ebd b279 16bd
000001e0: 3350 39bd 5dbe 4ebd d781 6fbd fbbe 7e3c
000001f0: 0fc5 79bd 4299 1a3d afc8 34bd 592a 623d
00000200: b173 0b3c 37c7 c03c a72e f93c 92bd 6f3d
00000210: b32f 0fbd 5058 903d 4936 6bbd 2eb7 dcbc
00000220: 42b0 a73c 3dfe f53b babc 7f3c 3baf 023d
00000230: aa34 7f3d de5c 213d 4e50 c5ba 7cc6 8c3c
00000240: 202b 85bc eb6e 7ebd 0d3e 5bbd 8694 06bd
00000250: 6bfa 573d a84d 173d 5e97 643d 8b78 633d
00000260: 5aec 643d 6b4c 1cbd 706a e13c 1cf2 5c3d
00000270: 89e5 433d 7e61 893d 54f0 adbc 8da0 a8bc
00000280: c2e4 db3c 8038 3dbd 625f 253d e69d cfbb
00000290: 97c3 653d b526 9a3c 7d78 163d 8c60 863d
000002a0: bb59 fb3c 1638 0c3d dda7 703d 468f e8bc
000002b0: 3e15 923d a4cd cfbc 3b61 64bd ebd7 763c
000002c0: fc06 a23c 5666 2a3d 4b1e 503d cff7 bb3c
000002d0: 0b2a 233d 2bc0 babc c416 033d 3744 aebc
000002e0: cf88 f03c b95e 8cbd f60e 053d 719f 843d
000002f0: b5bf 1cbb 5600 4bba 9ab0 60bd da68 10bd
00000300: 4896 ec3c ae5a 29bb 9b78 e1ba 712d aabb
00000310: 37d5 6abd e18b 323d cd12 89bc f4ba a5bc
00000320: 94db 4f3d bfc0 63bd 7395 243b 66fe 213d
00000330: 45fe b9bc 17cb 823c 5114 88bc 23f2 e03c
00000340: c1a6 72bd 5736 90bc f7e7 82bd 5719 d73c
00000350: b05a 8c3d acef 75bd 1216 42bd d1b8 293c
00000360: 36fb 7dbd e288 21ba c7f4 5abd efa3 793d
00000370: ad61 843d 6f71 023d d6f3 533d b562 e1bc
00000380: 9ebe 23bd 7fbb 853c f7f5 4b3d 0d11 7b3d
00000390: d090 32bd 00c5 e93c 4f28 3abd a298 0fbc
000003a0: 72df d2bc cec9 373d 3de6 1ebd 53d5 89bd
000003b0: 44b4 ca3c be3a 36ba 4cc4 88bd 6aab 8dbd
000003c0: 259b 8e3d dd46 7fbd 7123 8d3d 89af 8bbd
000003d0: 2d52 34bc e461 38bd 2aa8 073c bc64 6a3d
000003e0: b9f5 42bd d375 febc 1be9 d1bc a062 43bd
000003f0: cc78 f03b 8b00 8b3d 3804 52bd ddad 87bd
-0.020088846 -0.029040467 0.02217465 -0.03677995 -0.015221878 0.04755675 0.031265788 -0.04647329
0.017123181 0.042177755 -0.018108089 0.030796772 0.00052155013 -7.556583e-05 -0.035924796 0.045269668
0.01626628 0.051636726 0.029238375 -0.044618774 0.0059929625 -0.020322993 -0.019291284 -0.014836019
-0.059667196 -0.056020524 0.041090306 0.040372506 0.00025569144 0.064458594 0.059396323 -0.041124117
0.019442804 -0.048817433 0.051669832 -0.032619726 -0.053668004 0.04552862 0.058260582 -0.010248225
0.033991877 0.023097951 0.032164287 0.0055668796 0.023067426 -0.05196402 0.051900383 -0.042374484
0.018077692 0.05805124 -0.06584756 -0.028874934 -0.029498016 -0.03933615 0.07098725 0.02423016
-0.027286768 0.01514106 0.05209154 -0.03750204 0.0020083576 -0.05511031 0.018779274 0.028894974
-0.024862478 -0.030186692 0.00033156795 -0.06081873 -0.04817546 -0.008539994 -0.022535965 0.02973886
-0.003317816 -0.01832442 -0.041342746 0.067359366 -0.023396783 -0.046824984 -0.018818064 -0.016133945
-0.04671694 -0.051003207 0.0548557 0.034107964 0.02907681 -0.03303409 0.020150162 0.038681913
-0.043158833 0.019651342 0.011932468 -0.06093084 0.006809073 0.056131057 0.00958569 0.048647173
0.059049495 -0.0050907894 -0.016236069 0.057230495 -0.012452918 -0.06657109 0.030410035 -0.055789165
0.010741854 -0.02991324 0.018546637 -0.027514186 -0.008889674 0.032229096 0.04743149 -0.046628483
0.061822597 0.04794188 0.03405472 -0.017045358 0.045403752 0.003972215 -0.05818022 -0.03673715
-0.0452425 -0.050474513 -0.058473434 0.015548463 -0.060978945 0.037743814 -0.0441367 0.055216167
0.00851147 0.023532493 0.030417753 0.058530398 -0.0349576 0.07048094 -0.057424817 -0.026942816
0.020469788 0.007507114 0.015608961 0.031905394 0.062306084 0.039395206 -0.001505384 0.017184488
-0.016255915 -0.0621175 -0.053525973 -0.032856487 0.05272905 0.036939293 0.055808417 0.05553488
0.055889465 -0.038158815 0.027516574 0.05394183 0.047826324 0.06708048 -0.021232761 -0.02058437
0.026842479 -0.04619646 0.040374167 -0.0063359616 0.056094732 0.018817285 0.036736 0.065613836
0.030682435 0.034233175 0.058753837 -0.02838863 0.07132958 -0.025366612 -0.05575679 0.015066127
0.019778721 0.0416015 0.05081014 0.022945313 0.039835017 -0.022796711 0.032004133 -0.021272762
0.02936211 -0.068540044 0.03248497 0.064757235 -0.0023917977 -0.00077438855 -0.05485592 -0.035256244
0.028880253 -0.0025841403 -0.0017202081 -0.0051934053 -0.057332244 0.04359043 -0.016732598 -0.020230748
0.050746515 -0.05560374 0.0025113493 0.039549254 -0.022704253 0.015965981 -0.01661125 0.02745921
-0.05924106 -0.017604036 -0.063919 0.0262572 0.06853235 -0.060043022 -0.04738433 0.010359005
-0.06200715 -0.000616206 -0.053456094 0.060947355 0.06463943 0.03184646 0.051746212 -0.027512887
-0.03997671 0.016324757 0.049795117 0.061295558 -0.043595135 0.02853632 -0.045448598 -0.008764418
-0.025741313 0.04487019 -0.03879379 -0.067301415 0.02474416 -0.00069515023 -0.06678066 -0.0691746
0.06963185 -0.06232344 0.068915255 -0.0682059 -0.01100592 -0.04501523 0.0082798395 0.057224974
-0.04759762 -0.031062042 -0.025623849 -0.047701478 0.007338619 0.06787213 -0.051273555 -0.06624959

model.model.4.bias f4 [2]
00000000: f6b0 aa3d 9aaf bfbc
0.08334534 -0.023399163
